financial_score_model.pth (torch, 10582 bytes, 15 tensors)

fc1.weight f4 [16, 6]
0	0x3fb18f0e	1.3871782
1	0x400c8524	2.1956263
2	0xbfcd559d	-1.6041752
3	0x402dfdbc	2.7186117
4	0xbffc3d83	-1.9706272
5	0x3fac4c8a	1.3460858
6	0xc051b0b2	-3.2764096
7	0x3f0707c1	0.52746207
8	0x401cd48a	2.4504724
9	0x3ed93e99	0.4243057
10	0x4001a2c6	2.02556
11	0x3f554dd1	0.83321863
12	0x402eb052	2.7295117
13	0x3fb2143e	1.3912427
14	0x3fd9bed8	1.7011366
15	0x401f81e9	2.492304
16	0x4048a612	3.1351361
17	0x3f3a5ce6	0.72798
18	0xc020eaf4	-2.5143404
19	0x3fbbb590	1.4664783
20	0xc02ef66e	-2.7337909
21	0x40240757	2.562948
22	0xbfde37ce	-1.736078
23	0x3f9bfd04	1.2186589
24	0xc01146d8	-2.269949
25	0x3f43e076	0.76514375
26	0xbff06706	-1.878144
27	0x401c661e	2.4437327
28	0x3fe7f141	1.81205
29	0xc0272f9c	-2.6122808
30	0x4002b327	2.0421846
31	0xc05586a2	-3.3363423
32	0x40467129	3.1006567
33	0x40283ca9	2.6287024
34	0xbffecfb8	-1.9907141
35	0x3f5b2059	0.85596234
36	0xc049cd80	-3.1531677
37	0x3f9216a0	1.1413155
38	0x3facb0b7	1.3491429
39	0x400ad639	2.169325
40	0x4027654d	2.615558
41	0x3f83a0df	1.0283469
42	0x3eed6c76	0.46371812
43	0x4004a744	2.072709
44	0x402e3619	2.7220519
45	0x3c529c82	0.012854697
46	0x3f8d2c73	1.102919
47	0xc05394b0	-3.3059502
48	0x3fbfce5d	1.4984852
49	0x400b5832	2.177258
50	0xbfbddf03	-1.4833683
51	0xbfe95fab	-1.823232
52	0xc01a0996	-2.406835
53	0xbebac200	-0.36476135
54	0xbda0806e	-0.07836996
55	0xbd7bc9a1	-0.061471585
56	0xbd5730c4	-0.05253674
57	0xbda3ae27	-0.07992201
58	0x3d9859bb	0.0743899
59	0xbd04fb36	-0.032466136
60	0x3f2f81c2	0.6855737
61	0xc0591645	-3.3919842
62	0x40210d82	2.5164495
63	0x401c1737	2.438917
64	0x4036a4d3	2.85381
65	0x3fa880c2	1.3164294
66	0x3fe35261	1.7759515
67	0xbffaa385	-1.9581152
68	0xc047af03	-3.1200569
69	0x3fb999e0	1.4500084
70	0x401cbc79	2.4490035
71	0x3d26f2b0	0.04075879
72	0x3fe0f6cc	1.7575316
73	0xc052b468	-3.2922611
74	0xc038ff98	-2.8906002
75	0x3e8c3a3e	0.27388185
76	0xc0172d3f	-2.3621366
77	0x3f9c6e13	1.2221092
78	0xbd7e8c51	-0.062145535
79	0x3de37713	0.11106696
80	0x3d05f6f4	0.032706216
81	0xbcccb628	-0.024989203
82	0x3dd313c7	0.103065066
83	0x3d2009a2	0.039071687
84	0x400a5c56	2.1618857
85	0x3fd5d344	1.6705098
86	0x4016d85a	2.356955
87	0x3fe05708	1.752656
88	0xc02a7c7b	-2.6638477
89	0x3ee4befe	0.44676965
90	0xc01ac1f4	-2.418088
91	0xc01bc481	-2.4338686
92	0x3fdc781a	1.7224152
93	0x4003e30c	2.0607328
94	0xbfeeaa5c	-1.864574
95	0xc056dc23	-3.357186

fc1.bias f4 [16]
0	0x404f8044	3.2422037
1	0x40387511	2.8821452
2	0x401e9299	2.4776976
3	0x402c958b	2.6966274
4	0x4005777d	2.085418
5	0x40359e24	2.8377771
6	0x403c8264	2.9454584
7	0x40250f12	2.5790448
8	0x40222fc6	2.5341659
9	0xbf035458	-0.51300573
10	0x401ef86e	2.483913
11	0x4034a5e3	2.822625
12	0x402c27f5	2.6899388
13	0xbef5c43a	-0.4800127
14	0x4054d73b	3.3256366
15	0x402f9922	2.7437215

fc2.weight f4 [8, 16]
0	0xbd14262c	-0.036169216
1	0xbea31a0a	-0.31855804
2	0xbe8cb139	-0.2747896
3	0xbe56876f	-0.20950101
4	0xbda96d0c	-0.08272752
5	0xbe9db3d9	-0.30801275
6	0xbe631364	-0.22175366
7	0xbe73b85b	-0.23800795
8	0xbdd59d6b	-0.10430416
9	0xbe3bb21b	-0.1832966
10	0xbddc6fdf	-0.10763525
11	0xbe8f027b	-0.2793158
12	0xbe847ea7	-0.25877878
13	0xbe805e3f	-0.25071904
14	0xbe37efca	-0.17962566
15	0xbe993c53	-0.29928836
16	0x40271c42	2.6110997
17	0x403032da	2.7531037
18	0x402985be	2.648788
19	0x4029cc72	2.6531034
20	0x401cd4dc	2.450492
21	0x402cc74c	2.699664
22	0x402642d6	2.5978293
23	0x40342668	2.8148441
24	0x4015c179	2.3399336
25	0xbcdb05bd	-0.026736135
26	0x403b7a51	2.9293406
27	0x40250a96	2.578771
28	0x402f14b1	2.735638
29	0x3d9e7c7a	0.07738586
30	0x40290985	2.641206
31	0x402b78b3	2.679242
32	0xbe09defc	-0.13463968
33	0xbd604e62	-0.05476225
34	0x3d6028c9	0.054726396
35	0x3da24b5e	0.079245314
36	0x3dd65313	0.10465064
37	0xbe91430f	-0.28371474
38	0xbd643d07	-0.055722263
39	0xbe5171e4	-0.20453602
40	0xbe0d78ac	-0.13815564
41	0xbe914107	-0.28369924
42	0x3dff6433	0.12470283
43	0xbe927346	-0.28603572
44	0x3ca2119f	0.019783793
45	0xbcbf05dd	-0.023318226
46	0xbccd564e	-0.025065567
47	0xbe744187	-0.23853122
48	0x3deb4263	0.11487272
49	0xbd768687	-0.06018689
50	0xbd953d23	-0.072870515
51	0xbeadb8ef	-0.33930156
52	0xbd833888	-0.06407267
53	0xbe0c5bd2	-0.13706902
54	0xbe62be80	-0.22142982
55	0x3d13dcbd	0.036099184
56	0xbd6893b5	-0.05678149
57	0xbe6991ac	-0.22809476
58	0xbe3f115b	-0.18658964
59	0xbdf515c2	-0.119670406
60	0x3d2ac0e9	0.04168788
61	0xbe2b8d40	-0.16753101
62	0xbe732b2e	-0.2374694
63	0xbe3b54f9	-0.18294133
64	0xbe8d8515	-0.27640596
65	0xbc173f5d	-0.009231416
66	0x3db66dcc	0.08907661
67	0xbe9b1333	-0.30288085
68	0xbcf110ae	-0.029426899
69	0x3ce50862	0.027958099
70	0xbd453f10	-0.048155844
71	0xbe388283	-0.18018536
72	0x3d4a8663	0.049444567
73	0x3d1704e6	0.036869906
74	0xbc0cb3b8	-0.00858777
75	0xbe0e4066	-0.13891754
76	0xbe17bdb1	-0.14818455
77	0xbd835277	-0.06412213
78	0xbe0f7b09	-0.14011778
79	0xbe21e256	-0.15808997
80	0x3d8a0037	0.06738322
81	0x3dce8f62	0.10085942
82	0xbdfb0e31	-0.12258566
83	0xbe21d1ce	-0.1580269
84	0xbdc0c38d	-0.09412298
85	0xbdc6a00c	-0.09698495
86	0xbd889adf	-0.06670164
87	0xbcecfafd	-0.028928274
88	0xbed99c30	-0.42501974
89	0xbe33fbd5	-0.17576535
90	0xbd7b2bf1	-0.061321203
91	0xbd62b2d9	-0.055346344
92	0xbe065394	-0.1311782
93	0xbe6f651d	-0.23378415
94	0xbe6c378f	-0.23068069
95	0xbea50294	-0.3222853
96	0xbf9c943e	-1.223274
97	0x3f24e336	0.64409196
98	0x3e951df1	0.29124406
99	0xc0126de4	-2.2879572
100	0x400d5f34	2.2089357
101	0x4038a5c2	2.885117
102	0x3eccb14e	0.39979023
103	0x4005a545	2.0882123
104	0xc03774fb	-2.866515
105	0xbe16c015	-0.14721711
106	0x3f8dee21	1.1088296
107	0xc046021c	-3.0938787
108	0x3d72eaa9	0.05930582
109	0x3dbe63ff	0.092964165
110	0xbf6745c0	-0.90340805
111	0xbfd330f8	-1.6499319
112	0xbeb094af	-0.34488437
113	0x3d2c218a	0.042024173
114	0x3d8327fc	0.06404111
115	0xbd5e984d	-0.054344464
116	0xbe92ec94	-0.2869612
117	0xbead7d49	-0.33884647
118	0xbea3833b	-0.31936058
119	0x3ccb3d27	0.024809433
120	0xbc3df294	-0.01159348
121	0x3de524b4	0.11188641
122	0xbdb416be	-0.087934
123	0xbda2e411	-0.079536565
124	0xbe08bebf	-0.13354014
125	0xbe96f62f	-0.29484698
126	0xbea602f9	-0.32424143
127	0xbeaf6fb5	-0.34264913

fc2.bias f4 [8]
0	0xbc968ee5	-0.018378684
1	0x400c047e	2.1877742
2	0xbe28d020	-0.16485643
3	0xbe80e7a8	-0.2517674
4	0xbe0e4fec	-0.13897675
5	0xbe8a5c38	-0.27023482
6	0xc0878b1d	-4.2357316
7	0xbd2cd540	-0.04219556

fc3.weight f4 [1, 8]
0	0x3bd4b3f0	0.006491177
1	0x4039be47	2.9022386
2	0x3c5f33d5	0.013623198
3	0xbe2707a2	-0.16311505
4	0x3ceda274	0.029008128
5	0xbdb46880	-0.08808994
6	0xc06f1c28	-3.7360935
7	0xbe6b14df	-0.2295718

exp_avg f4 [16, 6]
0	0xc0dedfc1	-6.9648137
1	0x408eee30	4.4665756
2	0xc14f25ac	-12.946697
3	0x41916b1b	18.177298
4	0xc13372aa	-11.215494
5	0xc0a9b110	-5.302864
6	0xc0841595	-4.1276345
7	0x41e71735	28.886332
8	0x3f564f17	0.8371443
9	0x41917957	18.184248
10	0x41803717	16.0269
11	0x3d30d470	0.043171346
12	0xc0f0c03a	-7.523465
13	0x4189d8ad	17.230799
14	0x40695c67	3.6462648
15	0x41053610	8.325699
16	0xc11e8f61	-9.910005
17	0x411dc184	9.859745
18	0xc2108cdf	-36.13757
19	0x3ff7b8ce	1.9353273
20	0x410ae0f1	8.679917
21	0x409df21a	4.9358034
22	0xc09dec9f	-4.9351344
23	0x41663396	14.387594
24	0xc0d43fc9	-6.6327863
25	0xc1362f33	-11.386523
26	0xc2212dc9	-40.294712
27	0xc204efab	-33.23405
28	0x41394ae1	11.580781
29	0xc19ebefc	-19.843254
30	0xc0490a7f	-3.1412656
31	0xbe8676a2	-0.26262385
32	0xc05103f5	-3.2658665
33	0xc0c6019b	-6.187696
34	0xc1b20edb	-22.257254
35	0x3fb38770	1.4025707
36	0x40421fc4	3.0331888
37	0x4138d033	11.55083
38	0x418bcee2	17.476017
39	0x418db0fe	17.711422
40	0x3fee60fb	1.8623346
41	0xc0bc3ec1	-5.8826604
42	0x411f36aa	9.950846
43	0x419f45eb	19.90914
44	0xc13f0092	-11.937639
45	0x415ce123	13.804965
46	0x415542fc	13.328854
47	0x419ed120	19.852112
48	0x4090d02f	4.525413
49	0xbfe9ccbc	-1.8265605
50	0x40c0060c	6.000738
51	0xbeb862f9	-0.3601301
52	0xc157345b	-13.450282
53	0xc05b5423	-3.4270103
54	0x1ab41a9a	7.448923e-23
55	0x1aef7f0f	9.905336e-23
56	0x1aa008dc	6.618876e-23
57	0x9599b66e	-6.208403e-26
58	0x1b666d23	1.9060418e-22
59	0x9b3122fc	-1.4652401e-22
60	0xbde98f80	-0.114043236
61	0x40c3ba21	6.116471
62	0xc1defac7	-27.87245
63	0x3fe23908	1.7673655
64	0xc109c069	-8.609475
65	0xc12c53a1	-10.770417
66	0x41124a0f	9.143081
67	0xc25b394a	-54.805946
68	0xc013f23e	-2.3116603
69	0xc064e9cf	-3.5767705
70	0x41e2e2e9	28.360796
71	0x41122c4a	9.135813
72	0x40a744f2	5.227166
73	0xc1762ea9	-15.386392
74	0xc0b95372	-5.791436
75	0x417f28ca	15.947458
76	0xbfdc2c76	-1.7201068
77	0xc10d4bce	-8.831007
78	0x1b1aacc6	1.2794408e-22
79	0x1b830988	2.1678291e-22
80	0x9a41abe4	-4.0050317e-23
81	0x99f50990	-2.5336269e-23
82	0x1b13dfa5	1.2231818e-22
83	0x9ae17793	-9.3251e-23
84	0xbf5fa1bd	-0.8735617
85	0x41a47eef	20.56198
86	0x40d59a55	6.6750894
87	0x400aa299	2.1661742
88	0xc1e83298	-29.024704
89	0x4103234a	8.1961155
90	0xc206f426	-33.738426
91	0xc1717079	-15.089959
92	0xbf88c164	-1.0684018
93	0x41305369	11.020364
94	0xc1831b16	-16.388226
95	0x4177ec19	15.495141

exp_avg_sq f4 [16, 6]
0	0x450e65d3	2278.364
1	0x4533178d	2865.472
2	0x4594cb7d	4761.436
3	0x46ccde19	26223.049
4	0x45929301	4690.3755
5	0x4553391b	3379.569
6	0x46313bc9	11342.946
7	0x45541731	3393.4495
8	0x452485b5	2632.3567
9	0x45cf6c57	6637.5425
10	0x4572206a	3874.026
11	0x4509f73e	2207.4526
12	0x4524b69d	2635.4133
13	0x4534659c	2886.3506
14	0x45102dc1	2306.8596
15	0x46a75a89	21421.268
16	0x454443f2	3140.2466
17	0x45349407	2889.2517
18	0x460e6d68	9115.352
19	0x450b67c1	2230.4846
20	0x45fa5251	8010.2896
21	0x46a23eef	20767.467
22	0x45a27845	5199.0337
23	0x45648915	3656.5676
24	0x45d622d0	6852.3516
25	0x44bde129	1519.0363
26	0x45851d58	4259.668
27	0x462e6445	11161.067
28	0x44949e6a	1188.9504
29	0x461c390e	9998.264
30	0x451707ee	2416.4956
31	0x460e34e2	9101.221
32	0x45120ee4	2336.9307
33	0x469ab3b5	19801.854
34	0x459d478e	5032.9443
35	0x4564c24e	3660.144
36	0x460a547c	8853.121
37	0x451a8708	2472.4395
38	0x44ae54da	1394.6516
39	0x468b887b	17860.24
40	0x45694971	3732.59
41	0x4535fb0d	2911.6907
42	0x4517db9d	2429.7258
43	0x4569a0a9	3738.0413
44	0x4533c5a0	2876.3516
45	0x4530db70	2829.7148
46	0x44e04278	1794.0771
47	0x467bd18d	16116.388
48	0x448a27fd	1105.2496
49	0x44d2084c	1680.2593
50	0x45c11ddf	6179.734
51	0x4411f012	583.7511
52	0x457c4ab7	4036.6697
53	0x4519faf8	2463.6855
54	0x3d721ae2	0.05910767
55	0x3d31ae5f	0.043379184
56	0x3d526881	0.051369194
57	0x3c374147	0.011184997
58	0x3e0439c9	0.12912668
59	0x3d82f302	0.06394006
60	0x4509a423	2202.2585
61	0x46450d2c	12611.293
62	0x451bf486	2495.2827
63	0x46a52d41	21142.627
64	0x456f291f	3826.57
65	0x45261537	2657.326
66	0x4500fabf	2063.6716
67	0x460c6c5b	8987.089
68	0x46013e7a	8271.619
69	0x45e18fde	7217.9834
70	0x45834f9d	4201.9517
71	0x4553a3b0	3386.2305
72	0x453ba22d	3002.136
73	0x462bbbe8	10990.977
74	0x45d8bfe8	6935.9883
75	0x45c5fc61	6335.5474
76	0x45d6045b	6848.5444
77	0x4569d781	3741.469
78	0x3dbd5e2a	0.09246476
79	0x3e1d0801	0.15335084
80	0x3bed1c98	0.0072360747
81	0x3b63aebd	0.0034741603
82	0x3d7fd990	0.062463343
83	0x3c9b3c8b	0.018949768
84	0x451269ca	2342.6118
85	0x4518091b	2432.569
86	0x452e8422	2792.2583
87	0x466decc8	15227.195
88	0x45d1d12f	6714.148
89	0x45602588	3586.3457
90	0x46010fbe	8259.936
91	0x459e1dd9	5059.731
92	0x442af879	683.8824
93	0x4683cc87	16870.264
94	0x453d3716	3027.4429
95	0x4678217e	15880.373

exp_avg f4 [16]
0	0xc2267711	-41.616276
1	0xc262beb1	-56.686222
2	0x3fbe31b6	1.485892
3	0xc206af11	-33.670963
4	0xc106888b	-8.408336
5	0xc14c7ddd	-12.780728
6	0xc223f0b3	-40.985058
7	0xc1b28cda	-22.318775
8	0xbfc6e12f	-1.553747
9	0x1b572e13	1.779927e-22
10	0xc186169a	-16.761036
11	0xc1e0b4ea	-28.088337
12	0xc2146493	-37.098217
13	0x1b85e16d	2.2148682e-22
14	0xc24ec0fd	-51.688465
15	0xc1e41dce	-28.514553

exp_avg_sq f4 [16]
0	0x47a8db39	86454.445
1	0x47594aae	55626.68
2	0x47843ade	67701.734
3	0x4797b85d	77680.73
4	0x4730fd16	45309.086
5	0x479b4ab1	79509.38
6	0x47681adc	59418.86
7	0x47308ad2	45194.82
8	0x46f67527	31546.576
9	0x3e0dcfc3	0.13848786
10	0x47803c53	65656.65
11	0x474f89ae	53129.68
12	0x4780fb20	66038.25
13	0x3e2650a1	0.16241695
14	0x4795cbbe	76695.484
15	0x478d4191	72323.13

exp_avg f4 [8, 16]
0	0x1a8ba0ad	5.774864e-23
1	0x17d952b7	1.4044176e-24
2	0x17ba684c	1.2046297e-24
3	0x193c2fe1	9.729041e-24
4	0x19cf51d3	2.1436347e-23
5	0x1816cad8	1.9489456e-24
6	0x18b8eb3e	4.780042e-24
7	0x16940d6e	2.3919165e-25
8	0x198b8ffa	1.4430415e-23
9	0x181d4bbd	2.0330012e-24
10	0x16d8aae9	3.5004542e-25
11	0x184491da	2.5406042e-24
12	0x17bbeb16	1.2143936e-24
13	0x1856c8b3	2.7760179e-24
14	0x18b66582	4.7148394e-24
15	0x196ed825	1.2347962e-23
16	0xc1914590	-18.158966
17	0xc20257ac	-32.585617
18	0x4087247c	4.2232037
19	0x41030a40	8.190002
20	0x41ecf137	29.61778
21	0xc0b344ad	-5.6021333
22	0xc1add4ff	-21.729002
23	0xc20c46bf	-35.069088
24	0x410e65fb	8.899898
25	0x9b3b919b	-1.5515325e-22
26	0xc266b0b4	-57.67256
27	0x424d0ee1	51.26453
28	0xc1100958	-9.002281
29	0x9c43f595	-6.4837495e-22
30	0xc14eba06	-12.920416
31	0x41842242	16.516727
32	0xa162283b	-7.6625023e-19
33	0xa3650edc	-1.24172615e-17
34	0x17f6d6f6	1.5951641e-24
35	0xa45346f1	-4.581342e-17
36	0xa480aba3	-5.5801915e-17
37	0x18491a3c	2.5991886e-24
38	0xa1cda425	-1.3934789e-18
39	0x9f0926b8	-2.9042906e-20
40	0xa412e8f8	-3.1856036e-17
41	0x189f73af	4.1217347e-24
42	0x183e3fb7	2.4589092e-24
43	0x18c6d8dc	5.1400772e-24
44	0x19a34825	1.6882944e-23
45	0x1981e37f	1.3430172e-23
46	0x1a0f259d	2.960209e-23
47	0xa2fc09fa	-6.83153e-18
48	0x1d91f899	3.8638224e-21
49	0x1d58f97c	2.8716342e-21
50	0x1a15dc96	3.0990666e-23
51	0x1935acc0	9.392367e-24
52	0x1d8e7e4f	3.7717687e-21
53	0x1a5e70ea	4.5999735e-23
54	0x1a03526d	2.7156748e-23
55	0x1e4fe610	1.10060646e-20
56	0x1db7a61e	4.8611458e-21
57	0x192be0ce	8.885892e-24
58	0x15167ce4	3.039078e-26
59	0x1c319b7b	5.876534e-22
60	0x1a35cb5a	3.759419e-23
61	0x19a66183	1.7203382e-23
62	0x1a47b418	4.1297714e-23
63	0x1a25b1fe	3.426498e-23
64	0x190c5501	7.254997e-24
65	0x198f00a1	1.4786107e-23
66	0x19772c05	1.277849e-23
67	0x16a9d81c	2.7439807e-25
68	0x190338db	6.784023e-24
69	0x19e4258a	2.358981e-23
70	0x18d86d1b	5.594486e-24
71	0x18e6b9ac	5.9641087e-24
72	0x1923cab4	8.467838e-24
73	0x18f7251d	6.388548e-24
74	0x18750bd6	3.1671483e-24
75	0x194ada3c	1.0487227e-23
76	0x18da909a	5.649769e-24
77	0x18a3298a	4.2176456e-24
78	0x19de93ae	2.301391e-23
79	0x18b9f238	4.8065958e-24
80	0x19d86317	2.2373899e-23
81	0x213a1b9e	6.30558e-19
82	0x1fa23d40	6.8711e-20
83	0x1c1dad31	5.2170787e-22
84	0x1b4cf933	1.6955005e-22
85	0x1a274013	3.458655e-23
86	0x2104d35e	4.500308e-19
87	0x1c43bb80	6.4762426e-22
88	0x1e54b764	1.1261111e-20
89	0x18a6aa9b	4.308226e-24
90	0x209e935a	2.686375e-19
91	0x20a0e032	2.7253414e-19
92	0x1c8a75e7	9.162551e-22
93	0x1841c721	2.50452e-24
94	0x1934ac7e	9.3406164e-24
95	0x178adcd3	8.973785e-25
96	0x3f8cb355	1.0992228
97	0xbf29fcfb	-0.6640164
98	0xbf8c6e22	-1.097111
99	0x3f8e7425	1.1129194
100	0xc0d13d20	-6.5387115
101	0xc01c28bd	-2.4399865
102	0x40675d07	3.615053
103	0x401ca5eb	2.4476268
104	0xbfab60f3	-1.3388962
105	0x187d0b85	3.27053e-24
106	0x401ca4e6	2.4475646
107	0x40884a83	4.2590957
108	0x3d636fdd	0.055526603
109	0x18c418c3	5.0689815e-24
110	0x404acefb	3.168883
111	0x3fe10e2c	1.758245
112	0x19f2bd7e	2.5098749e-23
113	0x1ca41bec	1.0859827e-21
114	0x1c4dbe00	6.807438e-22
115	0x1a0f129c	2.958674e-23
116	0x1a70e164	4.9812906e-23
117	0x19c6c66c	2.0552862e-23
118	0x1b2ef4c5	1.4472032e-22
119	0x1cf7f120	1.6407418e-21
120	0x1a9959ce	6.3424404e-23
121	0x19dda7c4	2.2918624e-23
122	0x1c42a4d6	6.440226e-22
123	0x1c83b5d6	8.715856e-22
124	0x1a00792e	2.6567668e-23
125	0x1995689c	1.544849e-23
126	0x1aa57362	6.842881e-23
127	0x1ada39bd	9.025597e-23

exp_avg_sq f4 [8, 16]
0	0x3e3a5187	0.18195163
1	0x3964213b	0.00021756154
2	0x38b56cc9	8.6510154e-05
3	0x3b8161b2	0.0039484138
4	0x3c9f934b	0.019479414
5	0x39cea331	0.0003941297
6	0x3a9cda44	0.0011966904
7	0x36d4705c	6.3311727e-06
8	0x3c65c7c2	0.014024677
9	0x39df819a	0.00042630435
10	0x375491a6	1.2670096e-05
11	0x39cc44f3	0.00038961283
12	0x3928a153	0.00016081826
13	0x3a0c0895	0.0005341855
14	0x3aff57ee	0.0019481161
15	0x3c37cf68	0.011218883
16	0x48e25dca	463598.3
17	0x48400fb2	196670.78
18	0x488694e3	275623.1
19	0x48b725d5	375086.66
20	0x486f78cf	245219.23
21	0x48cbcf6b	417403.34
22	0x489f6f4a	326522.3
23	0x48288e79	172601.89
24	0x47d27d24	107770.28
25	0x3e0babaa	0.13639703
26	0x488299ad	267469.4
27	0x4875f6c5	251867.08
28	0x4888a66c	279859.38
29	0x3f3b24db	0.7310311
30	0x48b91be7	379103.22
31	0x48f38a30	498769.5
32	0x3c636410	0.013878837
33	0x3ca47398	0.02007465
34	0x39de0905	0.0004234986
35	0x3bb6ac5d	0.0055747465
36	0x3d9e0e3b	0.07717558
37	0x3a4b4583	0.00077541935
38	0x3be7ebcf	0.007077671
39	0x3abfb4c6	0.0014626018
40	0x3d2e802f	0.042602714
41	0x3ab7ed83	0.0014032576
42	0x39cd6a1a	0.000391797
43	0x3afa0511	0.0019074996
44	0x3c7ace30	0.015307948
45	0x3c2949ce	0.010332538
46	0x3d69eb1f	0.057108995
47	0x3ba11e1c	0.0049169194
48	0x40527266	3.2882323
49	0x3d0ad846	0.03389766
50	0x3d8919e9	0.06694395
51	0x3b90e6de	0.0044220528
52	0x3b32c04f	0.002727527
53	0x3e2ce3c0	0.16883755
54	0x3d48b760	0.049003005
55	0x3d22790a	0.039666213
56	0x3edd9046	0.43274134
57	0x3c079543	0.008275333
58	0x348b7aee	2.598021e-07
59	0x3d87e845	0.06636099
60	0x3de86bd7	0.11348694
61	0x3cafe13c	0.021469705
62	0x3e1e3556	0.15450034
63	0x3dcb239a	0.099189
64	0x3bb1b26d	0.0054228813
65	0x3c930189	0.017945068
66	0x3c38d68d	0.011281622
67	0x378660b9	1.6019085e-05
68	0x3ba63e6e	0.00507336
69	0x3d2afa9e	0.041742913
70	0x3b4184b4	0.002952856
71	0x3b6a116b	0.0035715948
72	0x3c1e0a46	0.009646004
73	0x3b749122	0.0037317951
74	0x3a3d49a0	0.0007220749
75	0x3c206ab8	0.009791069
76	0x3b8744e9	0.004128088
77	0x3aecd03d	0.0018067431
78	0x3d3c4303	0.045962345
79	0x3b3d1b35	0.0028855328
80	0x3d45397b	0.04815052
81	0x3d32d4c9	0.04365996
82	0x3be6d495	0.0070443847
83	0x36a8d511	5.0315944e-06
84	0x39d7ddf1	0.00041173355
85	0x3a98b604	0.0011650925
86	0x3c0257aa	0.007955471
87	0x3c40ba4b	0.011763166
88	0x36490fdc	2.9960565e-06
89	0x3b1abdef	0.0023611744
90	0x3880c775	6.1406674e-05
91	0x39b14433	0.00033810883
92	0x35f9513c	1.8575588e-06
93	0x3a5273eb	0.00080281374
94	0x3b67a63e	0.003534689
95	0x388e7103	6.792138e-05
96	0x41a0a6af	20.081388
97	0x420cb56f	35.17718
98	0x422315e1	40.771366
99	0x421b57d2	38.835762
100	0x42994e07	76.6524
101	0x4288157e	68.04198
102	0x423ded6a	47.48185
103	0x421f27f6	39.789024
104	0x416b8496	14.71987
105	0x3ab584eb	0.0013848817
106	0x423a970f	46.64752
107	0x4263843c	56.879135
108	0x4143cb31	12.237107
109	0x3b33d2e2	0.0027438928
110	0x4249bb32	50.432808
111	0x423af0c2	46.735115
112	0x3d5ad798	0.053428262
113	0x3ef68c91	0.4815412
114	0x3d462e19	0.048383806
115	0x3cbbd326	0.022927832
116	0x3cd6f9ad	0.026242102
117	0x3c963696	0.018336575
118	0x3d5bc009	0.053649936
119	0x3d63d38c	0.05562167
120	0x3e112b04	0.14176565
121	0x3d32d163	0.043656718
122	0x3af3494a	0.001856127
123	0x3d8a1faa	0.06744321
124	0x3ccd4689	0.025058048
125	0x3c8798ce	0.016552355
126	0x3de56272	0.112004176
127	0x3b5f7175	0.0034094725

exp_avg f4 [8]
0	0x1af08100	9.9470084e-23
1	0xc1419bb8	-12.100517
2	0xa2e7bece	-6.2814698e-18
3	0x1d9a10c7	4.0780808e-21
4	0x1a39b16b	3.840042e-23
5	0x1fa8e266	7.152531e-20
6	0x402da206	2.7130141
7	0x1c8af49f	9.195307e-22

exp_avg_sq f4 [8]
0	0x3edd3c0f	0.43209884
1	0x47763f82	63039.508
2	0x3ed7a216	0.4211585
3	0x4021f5b8	2.5306225
4	0x3e0c72b8	0.13715637
5	0x3db4e944	0.088335544
6	0x409b269f	4.8484645
7	0x3fdd44b2	1.7286589

exp_avg f4 [1, 8]
0	0x9a8b02ac	-5.749337e-23
1	0xc2b16df4	-88.71475
2	0xa477ac1d	-5.3705373e-17
3	0x9c981ddf	-1.0066238e-21
4	0x9a541e8a	-4.3865242e-23
5	0x9e6c33e6	-1.2504468e-20
6	0x41361193	11.379291
7	0x9ba60311	-2.7464378e-22

exp_avg_sq f4 [1, 8]
0	0x3e3bda2c	0.18344945
1	0x4c305a19	4.6229604e+07
2	0x3e788ecd	0.24273224
3	0x3e91e9ff	0.28498837
4	0x3e4191ce	0.18903276
5	0x3c3ac8a1	0.011400373
6	0x43c8fcd4	401.97522
7	0x3e1e91bd	0.15485282
